…
/data/zengyuzhi/project/nutrition/nutrition_seg/models/losses/cross_entropy_loss.py:230: UserWarning: Default ``avg_non_ignore`` is False, if you would like to ignore the certain label and average loss over non-ignore labels, which is the same with PyTorch official cross_entropy, set ``avg_non_ignore=True``.
  warnings.warn(
/data/zengyuzhi/project/nutrition/train.py:180: UserWarning: SyncBN is only supported with DDP. To be compatible with DP, we convert SyncBN to BN. Please use dist_train.sh which can avoid this error.
  warnings.warn(
2026-04-17 02:40:10,551 - mmseg - INFO - EncoderMaskDecoder(
  (backbone): ViTAdapter(
    (patch_embed): PatchEmbed(
      (proj): Conv2d(3, 1024, kernel_size=(16, 16), stride=(16, 16))
      (norm): Identity()
    )
    (pos_drop): Dropout(p=0.0, inplace=False)
    (blocks): Sequential(
      (0): Block(
        (norm1): LayerNorm((1024,), eps=1e-06, elementwise_affine=True)
        (attn): Attention(
          (qkv): Linear(in_features=1024, out_features=3072, bias=True)
          (attn_drop): Dropout(p=0.0, inplace=False)
          (proj): Linear(in_features=1024, out_features=1024, bias=True)
          (proj_drop): Dropout(p=0.0, inplace=False)
        )
        (drop_path): Identity()
        (norm2): LayerNorm((1024,), eps=1e-06, elementwise_affine=True)
        (mlp): Mlp(
          (fc1): Linear(in_features=1024, out_features=4096, bias=True)
          (act): GELU(approximate='none')
          (fc2): Linear(in_features=4096, out_features=1024, bias=True)
          (drop): Dropout(p=0.0, inplace=False)
        )
      )
      (1): Block(
        (norm1): LayerNorm((1024,), eps=1e-06, elementwise_affine=True)
        (attn): Attention(
          (qkv): Linear(in_features=1024, out_features=3072, bias=True)
          (attn_drop): Dropout(p=0.0, inplace=False)
          (proj): Linear(in_features=1024, out_features=1024, bias=True)
          (proj_drop): Dropout(p=0.0, inplace=False)
        )
        (drop_path): DropPath()
        (norm2): LayerNorm((1024,), eps=1e-06, elementwise_affine=True)
        (mlp): Mlp(
          (fc1): Linear(in_features=1024, out_features=4096, bias=True)
          (act): GELU(approximate='none')
          (fc2): Linear(in_features=4096, out_features=1024, bias=True)
          (drop): Dropout(p=0.0, inplace=False)
        )
      )
      (2): Block(
        (norm1): LayerNorm((1024,), eps=1e-06, elementwise_affine=True)
        (attn): Attention(
          (qkv): Linear(in_features=1024, out_features=3072, bias=True)
          (attn_drop): Dropout(p=0.0, inplace=False)
          (proj): Linear(in_features=1024, out_features=1024, bias=True)
          (proj_drop): Dropout(p=0.0, inplace=False)
        )
        (drop_path): DropPath()
        (norm2): LayerNorm((1024,), eps=1e-06, elementwise_affine=True)
        (mlp): Mlp(
          (fc1): Linear(in_features=1024, out_features=4096, bias=True)
          (act): GELU(approximate='none')
          (fc2): Linear(in_features=4096, out_features=1024, bias=True)
          (drop): Dropout(p=0.0, inplace=False)
        )
      )
      (3): Block(
        (norm1): LayerNorm((1024,), eps=1e-06, elementwise_affine=True)
        (attn): Attention(
          (qkv): Linear(in_features=1024, out_features=3072, bias=True)
          (attn_drop): Dropout(p=0.0, inplace=False)
          (proj): Linear(in_features=1024, out_features=1024, bias=True)
          (proj_drop): Dropout(p=0.0, inplace=False)
        )
        (drop_path): DropPath()
        (norm2): LayerNorm((1024,), eps=1e-06, elementwise_affine=True)
        (mlp): Mlp(
          (fc1): Linear(in_features=1024, out_features=4096, bias=True)
          (act): GELU(approximate='none')
          (fc2): Linear(in_features=4096, out_features=1024, bias=True)
          (drop): Dropout(p=0.0, inplace=False)
        )
      )
      (4): Block(
        (norm1): LayerNorm((1024,), eps=1e-06, elementwise_affine=True)
        (attn): Attention(
          (qkv): Linear(in_features=1024, out_features=3072, bias=True)
          (attn_drop): Dropout(p=0.0, inplace=False)
          (proj): Linear(in_features=1024, out_features=1024, bias=True)
          (proj_drop): Dropout(p=0.0, inplace=False)
        )
        (drop_path): DropPath()
        (norm2): LayerNorm((1024,), eps=1e-06, elementwise_affine=True)
        (mlp): Mlp(
          (fc1): Linear(in_features=1024, out_features=4096, bias=True)
          (act): GELU(approximate='none')
          (fc2): Linear(in_features=4096, out_features=1024, bias=True)
          (drop): Dropout(p=0.0, inplace=False)
        )
      )
      (5): Block(
        (norm1): LayerNorm((1024,), eps=1e-06, elementwise_affine=True)
        (attn): Attention(
          (qkv): Linear(in_features=1024, out_features=3072, bias=True)
          (attn_drop): Dropout(p=0.0, inplace=False)
          (proj): Linear(in_features=1024, out_features=1024, bias=True)
          (proj_drop): Dropout(p=0.0, inplace=False)
        )
        (drop_path): DropPath()
        (norm2): LayerNorm((1024,), eps=1e-06, elementwise_affine=True)
        (mlp): Mlp(
          (fc1): Linear(in_features=1024, out_features=4096, bias=True)
          (act): GELU(approximate='none')
          (fc2): Linear(in_features=4096, out_features=1024, bias=True)
          (drop): Dropout(p=0.0, inplace=False)
        )
      )
      (6): Block(
        (norm1): LayerNorm((1024,), eps=1e-06, elementwise_affine=True)
        (attn): Attention(
          (qkv): Linear(in_features=1024, out_features=3072, bias=True)
          (attn_drop): Dropout(p=0.0, inplace=False)
          (proj): Linear(in_features=1024, out_features=1024, bias=True)
          (proj_drop): Dropout(p=0.0, inplace=False)
        )
        (drop_path): DropPath()
        (norm2): LayerNorm((1024,), eps=1e-06, elementwise_affine=True)
        (mlp): Mlp(
          (fc1): Linear(in_features=1024, out_features=4096, bias=True)
          (act): GELU(approximate='none')
          (fc2): Linear(in_features=4096, out_features=1024, bias=True)
          (drop): Dropout(p=0.0, inplace=False)
        )
      )
      (7): Block(
        (norm1): LayerNorm((1024,), eps=1e-06, elementwise_affine=True)
        (attn): Attention(
          (qkv): Linear(in_features=1024, out_features=3072, bias=True)
          (attn_drop): Dropout(p=0.0, inplace=False)
          (proj): Linear(in_features=1024, out_features=1024, bias=True)
          (proj_drop): Dropout(p=0.0, inplace=False)
        )
        (drop_path): DropPath()
        (norm2): LayerNorm((1024,), eps=1e-06, elementwise_affine=True)
        (mlp): Mlp(
          (fc1): Linear(in_features=1024, out_features=4096, bias=True)
          (act): GELU(approximate='none')
          (fc2): Linear(in_features=4096, out_features=1024, bias=True)
          (drop): Dropout(p=0.0, inplace=False)
        )
      )
      (8): Block(
        (norm1): LayerNorm((1024,), eps=1e-06, elementwise_affine=True)
        (attn): Attention(
          (qkv): Linear(in_features=1024, out_features=3072, bias=True)
          (attn_drop): Dropout(p=0.0, inplace=False)
          (proj): Linear(in_features=1024, out_features=1024, bias=True)
          (proj_drop): Dropout(p=0.0, inplace=False)
        )
        (drop_path): DropPath()
        (norm2): LayerNorm((1024,), eps=1e-06, elementwise_affine=True)
        (mlp): Mlp(
          (fc1): Linear(in_features=1024, out_features=4096, bias=True)
          (act): GELU(approximate='none')
          (fc2): Linear(in_features=4096, out_features=1024, bias=True)
          (drop): Dropout(p=0.0, inplace=False)
        )
      )
      (9): Block(
        (norm1): LayerNorm((1024,), eps=1e-06, elementwise_affine=True)
        (attn): Attention(
          (qkv): Linear(in_features=1024, out_features=3072, bias=True)
          (attn_drop): Dropout(p=0.0, inplace=False)
          (proj): Linear(in_features=1024, out_features=1024, bias=True)
          (proj_drop): Dropout(p=0.0, inplace=False)
        )
        (drop_path): DropPath()
        (norm2): LayerNorm((1024,), eps=1e-06, elementwise_affine=True)
        (mlp): Mlp(
          (fc1): Linear(in_features=1024, out_features=4096, bias=True)
          (act): GELU(approximate='none')
          (fc2): Linear(in_features=4096, out_features=1024, bias=True)
          (drop): Dropout(p=0.0, inplace=False)
        )
      )
      (10): Block(
        (norm1): LayerNorm((1024,), eps=1e-06, elementwise_affine=True)
        (attn): Attention(
          (qkv): Linear(in_features=1024, out_features=3072, bias=True)
          (attn_drop): Dropout(p=0.0, inplace=False)
          (proj): Linear(in_features=1024, out_features=1024, bias=True)
          (proj_drop): Dropout(p=0.0, inplace=False)
        )
        (drop_path): DropPath()
        (norm2): LayerNorm((1024,), eps=1e-06, elementwise_affine=True)
        (mlp): Mlp(
          (fc1): Linear(in_features=1024, out_features=4096, bias=True)
          (act): GELU(approximate='none')
          (fc2): Linear(in_features=4096, out_features=1024, bias=True)
          (drop): Dropout(p=0.0, inplace=False)
        )
      )
      (11): Block(
        (norm1): LayerNorm((1024,), eps=1e-06, elementwise_affine=True)
        (attn): Attention(
          (qkv): Linear(in_features=1024, out_features=3072, bias=True)
          (attn_drop): Dropout(p=0.0, inplace=False)
          (proj): Linear(in_features=1024, out_features=1024, bias=True)
          (proj_drop): Dropout(p=0.0, inplace=False)
        )
        (drop_path): DropPath()
        (norm2): LayerNorm((1024,), eps=1e-06, elementwise_affine=True)
        (mlp): Mlp(
          (fc1): Linear(in_features=1024, out_features=4096, bias=True)
          (act): GELU(approximate='none')
          (fc2): Linear(in_features=4096, out_features=1024, bias=True)
          (drop): Dropout(p=0.0, inplace=False)
        )
      )
      (12): Block(
        (norm1): LayerNorm((1024,), eps=1e-06, elementwise_affine=True)
        (attn): Attention(
          (qkv): Linear(in_features=1024, out_features=3072, bias=True)
          (attn_drop): Dropout(p=0.0, inplace=False)
          (proj): Linear(in_features=1024, out_features=1024, bias=True)
          (proj_drop): Dropout(p=0.0, inplace=False)
        )
        (drop_path): DropPath()
        (norm2): LayerNorm((1024,), eps=1e-06, elementwise_affine=True)
        (mlp): Mlp(
          (fc1): Linear(in_features=1024, out_features=4096, bias=True)
          (act): GELU(approximate='none')
          (fc2): Linear(in_features=4096, out_features=1024, bias=True)
          (drop): Dropout(p=0.0, inplace=False)
        )
      )
      (13): Block(
        (norm1): LayerNorm((1024,), eps=1e-06, elementwise_affine=True)
        (attn): Attention(
          (qkv): Linear(in_features=1024, out_features=3072, bias=True)
          (attn_drop): Dropout(p=0.0, inplace=False)
          (proj): Linear(in_features=1024, out_features=1024, bias=True)
          (proj_drop): Dropout(p=0.0, inplace=False)
        )
        (drop_path): DropPath()
        (norm2): LayerNorm((1024,), eps=1e-06, elementwise_affine=True)
        (mlp): Mlp(
          (fc1): Linear(in_features=1024, out_features=4096, bias=True)
          (act): GELU(approximate='none')
          (fc2): Linear(in_features=4096, out_features=1024, bias=True)
          (drop): Dropout(p=0.0, inplace=False)
        )
      )
      (14): Block(
        (norm1): LayerNorm((1024,), eps=1e-06, elementwise_affine=True)
        (attn): Attention(
          (qkv): Linear(in_features=1024, out_features=3072, bias=True)
          (attn_drop): Dropout(p=0.0, inplace=False)
          (proj): Linear(in_features=1024, out_features=1024, bias=True)
          (proj_drop): Dropout(p=0.0, inplace=False)
        )
        (drop_path): DropPath()
        (norm2): LayerNorm((1024,), eps=1e-06, elementwise_affine=True)
        (mlp): Mlp(
          (fc1): Linear(in_features=1024, out_features=4096, bias=True)
          (act): GELU(approximate='none')
          (fc2): Linear(in_features=4096, out_features=1024, bias=True)
          (drop): Dropout(p=0.0, inplace=False)
        )
      )
      (15): Block(
        (norm1): LayerNorm((1024,), eps=1e-06, elementwise_affine=True)
        (attn): Attention(
          (qkv): Linear(in_features=1024, out_features=3072, bias=True)
          (attn_drop): Dropout(p=0.0, inplace=False)
          (proj): Linear(in_features=1024, out_features=1024, bias=True)
          (proj_drop): Dropout(p=0.0, inplace=False)
        )
        (drop_path): DropPath()
        (norm2): LayerNorm((1024,), eps=1e-06, elementwise_affine=True)
        (mlp): Mlp(
          (fc1): Linear(in_features=1024, out_features=4096, bias=True)
          (act): GELU(approximate='none')
          (fc2): Linear(in_features=4096, out_features=1024, bias=True)
          (drop): Dropout(p=0.0, inplace=False)
        )
      )
      (16): Block(
        (norm1): LayerNorm((1024,), eps=1e-06, elementwise_affine=True)
        (attn): Attention(
          (qkv): Linear(in_features=1024, out_features=3072, bias=True)
          (attn_drop): Dropout(p=0.0, inplace=False)
          (proj): Linear(in_features=1024, out_features=1024, bias=True)
          (proj_drop): Dropout(p=0.0, inplace=False)
        )
        (drop_path): DropPath()
        (norm2): LayerNorm((1024,), eps=1e-06, elementwise_affine=True)
        (mlp): Mlp(
          (fc1): Linear(in_features=1024, out_features=4096, bias=True)
          (act): GELU(approximate='none')
          (fc2): Linear(in_features=4096, out_features=1024, bias=True)
          (drop): Dropout(p=0.0, inplace=False)
        )
      )
      (17): Block(
        (norm1): LayerNorm((1024,), eps=1e-06, elementwise_affine=True)
        (attn): Attention(
          (qkv): Linear(in_features=1024, out_features=3072, bias=True)
          (attn_drop): Dropout(p=0.0, inplace=False)
          (proj): Linear(in_features=1024, out_features=1024, bias=True)
          (proj_drop): Dropout(p=0.0, inplace=False)
        )
        (drop_path): DropPath()
        (norm2): LayerNorm((1024,), eps=1e-06, elementwise_affine=True)
        (mlp): Mlp(
          (fc1): Linear(in_features=1024, out_features=4096, bias=True)
          (act): GELU(approximate='none')
          (fc2): Linear(in_features=4096, out_features=1024, bias=True)
          (drop): Dropout(p=0.0, inplace=False)
        )
      )
      (18): Block(
        (norm1): LayerNorm((1024,), eps=1e-06, elementwise_affine=True)
        (attn): Attention(
          (qkv): Linear(in_features=1024, out_features=3072, bias=True)
          (attn_drop): Dropout(p=0.0, inplace=False)
          (proj): Linear(in_features=1024, out_features=1024, bias=True)
          (proj_drop): Dropout(p=0.0, inplace=False)
        )
        (drop_path): DropPath()
        (norm2): LayerNorm((1024,), eps=1e-06, elementwise_affine=True)
        (mlp): Mlp(
          (fc1): Linear(in_features=1024, out_features=4096, bias=True)
          (act): GELU(approximate='none')
          (fc2): Linear(in_features=4096, out_features=1024, bias=True)
          (drop): Dropout(p=0.0, inplace=False)
        )
      )
      (19): Block(
        (norm1): LayerNorm((1024,), eps=1e-06, elementwise_affine=True)
        (attn): Attention(
          (qkv): Linear(in_features=1024, out_features=3072, bias=True)
          (attn_drop): Dropout(p=0.0, inplace=False)
          (proj): Linear(in_features=1024, out_features=1024, bias=True)
          (proj_drop): Dropout(p=0.0, inplace=False)
        )
        (drop_path): DropPath()
        (norm2): LayerNorm((1024,), eps=1e-06, elementwise_affine=True)
        (mlp): Mlp(
          (fc1): Linear(in_features=1024, out_features=4096, bias=True)
          (act): GELU(approximate='none')
          (fc2): Linear(in_features=4096, out_features=1024, bias=True)
          (drop): Dropout(p=0.0, inplace=False)
        )
      )
      (20): Block(
        (norm1): LayerNorm((1024,), eps=1e-06, elementwise_affine=True)
        (attn): Attention(
          (qkv): Linear(in_features=1024, out_features=3072, bias=True)
          (attn_drop): Dropout(p=0.0, inplace=False)
          (proj): Linear(in_features=1024, out_features=1024, bias=True)
          (proj_drop): Dropout(p=0.0, inplace=False)
        )
        (drop_path): DropPath()
        (norm2): LayerNorm((1024,), eps=1e-06, elementwise_affine=True)
        (mlp): Mlp(
          (fc1): Linear(in_features=1024, out_features=4096, bias=True)
          (act): GELU(approximate='none')
          (fc2): Linear(in_features=4096, out_features=1024, bias=True)
          (drop): Dropout(p=0.0, inplace=False)
        )
      )
      (21): Block(
        (norm1): LayerNorm((1024,), eps=1e-06, elementwise_affine=True)
        (attn): Attention(
          (qkv): Linear(in_features=1024, out_features=3072, bias=True)
          (attn_drop): Dropout(p=0.0, inplace=False)
          (proj): Linear(in_features=1024, out_features=1024, bias=True)
          (proj_drop): Dropout(p=0.0, inplace=False)
        )
        (drop_path): DropPath()
        (norm2): LayerNorm((1024,), eps=1e-06, elementwise_affine=True)
        (mlp): Mlp(
          (fc1): Linear(in_features=1024, out_features=4096, bias=True)
          (act): GELU(approximate='none')
          (fc2): Linear(in_features=4096, out_features=1024, bias=True)
          (drop): Dropout(p=0.0, inplace=False)
        )
      )
      (22): Block(
        (norm1): LayerNorm((1024,), eps=1e-06, elementwise_affine=True)
        (attn): Attention(
          (qkv): Linear(in_features=1024, out_features=3072, bias=True)
          (attn_drop): Dropout(p=0.0, inplace=False)
          (proj): Linear(in_features=1024, out_features=1024, bias=True)
          (proj_drop): Dropout(p=0.0, inplace=False)
        )
        (drop_path): DropPath()
        (norm2): LayerNorm((1024,), eps=1e-06, elementwise_affine=True)
        (mlp): Mlp(
          (fc1): Linear(in_features=1024, out_features=4096, bias=True)
          (act): GELU(approximate='none')
          (fc2): Linear(in_features=4096, out_features=1024, bias=True)
          (drop): Dropout(p=0.0, inplace=False)
        )
      )
      (23): Block(
        (norm1): LayerNorm((1024,), eps=1e-06, elementwise_affine=True)
        (attn): Attention(
          (qkv): Linear(in_features=1024, out_features=3072, bias=True)
          (attn_drop): Dropout(p=0.0, inplace=False)
          (proj): Linear(in_features=1024, out_features=1024, bias=True)
          (proj_drop): Dropout(p=0.0, inplace=False)
        )
        (drop_path): DropPath()
        (norm2): LayerNorm((1024,), eps=1e-06, elementwise_affine=True)
        (mlp): Mlp(
          (fc1): Linear(in_features=1024, out_features=4096, bias=True)
          (act): GELU(approximate='none')
          (fc2): Linear(in_features=4096, out_features=1024, bias=True)
          (drop): Dropout(p=0.0, inplace=False)
        )
      )
    )
    (spm_rgb): SpatialPriorModule(
      (stem): Sequential(
        (0): Conv2d(3, 64, kernel_size=(3, 3), stride=(2, 2), padding=(1, 1), bias=False)
        (1): _BatchNormXd(64, eps=1e-05, momentum=0.1, affine=True, track_running_stats=True)
        (2): ReLU(inplace=True)
        (3): Conv2d(64, 64, kernel_size=(3, 3), stride=(1, 1), padding=(1, 1), bias=False)
        (4): _BatchNormXd(64, eps=1e-05, momentum=0.1, affine=True, track_running_stats=True)
        (5): ReLU(inplace=True)
        (6): Conv2d(64, 64, kernel_size=(3, 3), stride=(1, 1), padding=(1, 1), bias=False)
        (7): _BatchNormXd(64, eps=1e-05, momentum=0.1, affine=True, track_running_stats=True)
        (8): ReLU(inplace=True)
        (9): MaxPool2d(kernel_size=3, stride=2, padding=1, dilation=1, ceil_mode=False)
      )
      (conv2): Sequential(
        (0): Conv2d(64, 128, kernel_size=(3, 3), stride=(2, 2), padding=(1, 1), bias=False)
        (1): _BatchNormXd(128, eps=1e-05, momentum=0.1, affine=True, track_running_stats=True)
        (2): ReLU(inplace=True)
      )
      (conv3): Sequential(
        (0): Conv2d(128, 256, kernel_size=(3, 3), stride=(2, 2), padding=(1, 1), bias=False)
        (1): _BatchNormXd(256, eps=1e-05, momentum=0.1, affine=True, track_running_stats=True)
        (2): ReLU(inplace=True)
      )
      (conv4): Sequential(
        (0): Conv2d(256, 256, kernel_size=(3, 3), stride=(2, 2), padding=(1, 1), bias=False)
        (1): _BatchNormXd(256, eps=1e-05, momentum=0.1, affine=True, track_running_stats=True)
        (2): ReLU(inplace=True)
      )
      (fc1): Conv2d(64, 1024, kernel_size=(1, 1), stride=(1, 1))
      (fc2): Conv2d(128, 1024, kernel_size=(1, 1), stride=(1, 1))
      (fc3): Conv2d(256, 1024, kernel_size=(1, 1), stride=(1, 1))
      (fc4): Conv2d(256, 1024, kernel_size=(1, 1), stride=(1, 1))
    )
    (spm_depth): SpatialPriorModule(
      (stem): Sequential(
        (0): Conv2d(1, 64, kernel_size=(5, 5), stride=(2, 2), padding=(2, 2), bias=False)
        (1): _BatchNormXd(64, eps=1e-05, momentum=0.1, affine=True, track_running_stats=True)
        (2): ReLU(inplace=True)
        (3): Conv2d(64, 64, kernel_size=(3, 3), stride=(1, 1), padding=(1, 1), bias=False)
        (4): _BatchNormXd(64, eps=1e-05, momentum=0.1, affine=True, track_running_stats=True)
        (5): ReLU(inplace=True)
        (6): Conv2d(64, 64, kernel_size=(3, 3), stride=(1, 1), padding=(1, 1), bias=False)
        (7): _BatchNormXd(64, eps=1e-05, momentum=0.1, affine=True, track_running_stats=True)
        (8): ReLU(inplace=True)
        (9): MaxPool2d(kernel_size=3, stride=2, padding=1, dilation=1, ceil_mode=False)
      )
      (conv2): Sequential(
        (0): Conv2d(64, 128, kernel_size=(3, 3), stride=(2, 2), padding=(1, 1), bias=False)
        (1): _BatchNormXd(128, eps=1e-05, momentum=0.1, affine=True, track_running_stats=True)
        (2): ReLU(inplace=True)
      )
      (conv3): Sequential(
        (0): Conv2d(128, 256, kernel_size=(3, 3), stride=(2, 2), padding=(1, 1), bias=False)
        (1): _BatchNormXd(256, eps=1e-05, momentum=0.1, affine=True, track_running_stats=True)
        (2): ReLU(inplace=True)
      )
      (conv4): Sequential(
        (0): Conv2d(256, 256, kernel_size=(3, 3), stride=(2, 2), padding=(1, 1), bias=False)
        (1): _BatchNormXd(256, eps=1e-05, momentum=0.1, affine=True, track_running_stats=True)
        (2): ReLU(inplace=True)
      )
      (fc1): Conv2d(64, 1024, kernel_size=(1, 1), stride=(1, 1))
      (fc2): Conv2d(128, 1024, kernel_size=(1, 1), stride=(1, 1))
      (fc3): Conv2d(256, 1024, kernel_size=(1, 1), stride=(1, 1))
      (fc4): Conv2d(256, 1024, kernel_size=(1, 1), stride=(1, 1))
    )
    (interactions): Sequential(
      (0): InteractionBlock(
        (injector_rgb): Injector(
          (query_norm): LayerNorm((1024,), eps=1e-06, elementwise_affine=True)
          (feat_norm): LayerNorm((1024,), eps=1e-06, elementwise_affine=True)
          (attn): MSDeformAttn(
            (sampling_offsets): Linear(in_features=1024, out_features=384, bias=True)
            (attention_weights): Linear(in_features=1024, out_features=192, bias=True)
            (value_proj): Linear(in_features=1024, out_features=512, bias=True)
            (output_proj): Linear(in_features=512, out_features=1024, bias=True)
          )
        )
        (extractor): Extractor(
          (query_norm): LayerNorm((1024,), eps=1e-06, elementwise_affine=True)
          (feat_norm): LayerNorm((1024,), eps=1e-06, elementwise_affine=True)
          (sprase_feat_attn): SpraseFeatAttn(
            (q_proj): Linear(in_features=1024, out_features=1024, bias=True)
            (k_proj): Linear(in_features=1024, out_features=1024, bias=True)
            (v_proj): Linear(in_features=1024, out_features=1024, bias=True)
            (out_proj): Linear(in_features=1024, out_features=1024, bias=True)
            (norm_q): LayerNorm((1024,), eps=1e-06, elementwise_affine=True)
            (norm_kv): LayerNorm((1024,), eps=1e-06, elementwise_affine=True)
            (dropout): Dropout(p=0.0, inplace=False)
            (drop_path): Identity()
          )
          (attn): MSDeformAttn(
            (sampling_offsets): Linear(in_features=1024, out_features=128, bias=True)
            (attention_weights): Linear(in_features=1024, out_features=64, bias=True)
            (value_proj): Linear(in_features=1024, out_features=512, bias=True)
            (output_proj): Linear(in_features=512, out_features=1024, bias=True)
          )
          (plateffn): FFN(
            (layers): ModuleList(
              (0): Linear(in_features=1024, out_features=2048, bias=True)
              (1): Linear(in_features=2048, out_features=1024, bias=True)
            )
            (dropout): Dropout(p=0.0, inplace=False)
            (activation): GELU(approximate='none')
          )
          (plateffn_norm): LayerNorm((1024,), eps=1e-06, elementwise_affine=True)
          (sprase_drop_path): DropPath()
          (cffn): ConvFFN(
            (fc1): Linear(in_features=1024, out_features=256, bias=True)
            (dwconv): DWConv(
              (dwconv): Conv2d(256, 256, kernel_size=(3, 3), stride=(1, 1), padding=(1, 1), groups=256)
            )
            (act): GELU(approximate='none')
            (fc2): Linear(in_features=256, out_features=1024, bias=True)
            (drop): Dropout(p=0.0, inplace=False)
          )
          (cffn_norm): LayerNorm((1024,), eps=1e-06, elementwise_affine=True)
          (drop_path): DropPath()
        )
      )
      (1): InteractionBlock(
        (injector_rgb): Injector(
          (query_norm): LayerNorm((1024,), eps=1e-06, elementwise_affine=True)
          (feat_norm): LayerNorm((1024,), eps=1e-06, elementwise_affine=True)
          (attn): MSDeformAttn(
            (sampling_offsets): Linear(in_features=1024, out_features=384, bias=True)
            (attention_weights): Linear(in_features=1024, out_features=192, bias=True)
            (value_proj): Linear(in_features=1024, out_features=512, bias=True)
            (output_proj): Linear(in_features=512, out_features=1024, bias=True)
          )
        )
        (extractor): Extractor(
          (query_norm): LayerNorm((1024,), eps=1e-06, elementwise_affine=True)
          (feat_norm): LayerNorm((1024,), eps=1e-06, elementwise_affine=True)
          (sprase_feat_attn): SpraseFeatAttn(
            (q_proj): Linear(in_features=1024, out_features=1024, bias=True)
            (k_proj): Linear(in_features=1024, out_features=1024, bias=True)
            (v_proj): Linear(in_features=1024, out_features=1024, bias=True)
            (out_proj): Linear(in_features=1024, out_features=1024, bias=True)
            (norm_q): LayerNorm((1024,), eps=1e-06, elementwise_affine=True)
            (norm_kv): LayerNorm((1024,), eps=1e-06, elementwise_affine=True)
            (dropout): Dropout(p=0.0, inplace=False)
            (drop_path): Identity()
          )
          (attn): MSDeformAttn(
            (sampling_offsets): Linear(in_features=1024, out_features=128, bias=True)
            (attention_weights): Linear(in_features=1024, out_features=64, bias=True)
            (value_proj): Linear(in_features=1024, out_features=512, bias=True)
            (output_proj): Linear(in_features=512, out_features=1024, bias=True)
          )
          (plateffn): FFN(
            (layers): ModuleList(
              (0): Linear(in_features=1024, out_features=2048, bias=True)
              (1): Linear(in_features=2048, out_features=1024, bias=True)
            )
            (dropout): Dropout(p=0.0, inplace=False)
            (activation): GELU(approximate='none')
          )
          (plateffn_norm): LayerNorm((1024,), eps=1e-06, elementwise_affine=True)
          (sprase_drop_path): DropPath()
          (cffn): ConvFFN(
            (fc1): Linear(in_features=1024, out_features=256, bias=True)
            (dwconv): DWConv(
              (dwconv): Conv2d(256, 256, kernel_size=(3, 3), stride=(1, 1), padding=(1, 1), groups=256)
            )
            (act): GELU(approximate='none')
            (fc2): Linear(in_features=256, out_features=1024, bias=True)
            (drop): Dropout(p=0.0, inplace=False)
          )
          (cffn_norm): LayerNorm((1024,), eps=1e-06, elementwise_affine=True)
          (drop_path): DropPath()
        )
      )
      (2): InteractionBlock(
        (injector_rgb): Injector(
          (query_norm): LayerNorm((1024,), eps=1e-06, elementwise_affine=True)
          (feat_norm): LayerNorm((1024,), eps=1e-06, elementwise_affine=True)
          (attn): MSDeformAttn(
            (sampling_offsets): Linear(in_features=1024, out_features=384, bias=True)
            (attention_weights): Linear(in_features=1024, out_features=192, bias=True)
            (value_proj): Linear(in_features=1024, out_features=512, bias=True)
            (output_proj): Linear(in_features=512, out_features=1024, bias=True)
          )
        )
        (injector_d): Injector(
          (query_norm): LayerNorm((1024,), eps=1e-06, elementwise_affine=True)
          (feat_norm): LayerNorm((1024,), eps=1e-06, elementwise_affine=True)
          (attn): MSDeformAttn(
            (sampling_offsets): Linear(in_features=1024, out_features=384, bias=True)
            (attention_weights): Linear(in_features=1024, out_features=192, bias=True)
            (value_proj): Linear(in_features=1024, out_features=512, bias=True)
            (output_proj): Linear(in_features=512, out_features=1024, bias=True)
          )
        )
        (extractor): Extractor(
          (query_norm): LayerNorm((1024,), eps=1e-06, elementwise_affine=True)
          (feat_norm): LayerNorm((1024,), eps=1e-06, elementwise_affine=True)
          (sprase_feat_attn): SpraseFeatAttn(
            (q_proj): Linear(in_features=1024, out_features=1024, bias=True)
            (k_proj): Linear(in_features=1024, out_features=1024, bias=True)
            (v_proj): Linear(in_features=1024, out_features=1024, bias=True)
            (out_proj): Linear(in_features=1024, out_features=1024, bias=True)
            (norm_q): LayerNorm((1024,), eps=1e-06, elementwise_affine=True)
            (norm_kv): LayerNorm((1024,), eps=1e-06, elementwise_affine=True)
            (dropout): Dropout(p=0.0, inplace=False)
            (drop_path): Identity()
          )
          (attn): MSDeformAttn(
            (sampling_offsets): Linear(in_features=1024, out_features=128, bias=True)
            (attention_weights): Linear(in_features=1024, out_features=64, bias=True)
            (value_proj): Linear(in_features=1024, out_features=512, bias=True)
            (output_proj): Linear(in_features=512, out_features=1024, bias=True)
          )
          (plateffn): FFN(
            (layers): ModuleList(
              (0): Linear(in_features=1024, out_features=2048, bias=True)
              (1): Linear(in_features=2048, out_features=1024, bias=True)
            )
            (dropout): Dropout(p=0.0, inplace=False)
            (activation): GELU(approximate='none')
          )
          (plateffn_norm): LayerNorm((1024,), eps=1e-06, elementwise_affine=True)
          (sprase_drop_path): DropPath()
          (cffn): ConvFFN(
            (fc1): Linear(in_features=1024, out_features=256, bias=True)
            (dwconv): DWConv(
              (dwconv): Conv2d(256, 256, kernel_size=(3, 3), stride=(1, 1), padding=(1, 1), groups=256)
            )
            (act): GELU(approximate='none')
            (fc2): Linear(in_features=256, out_features=1024, bias=True)
            (drop): Dropout(p=0.0, inplace=False)
          )
          (cffn_norm): LayerNorm((1024,), eps=1e-06, elementwise_affine=True)
          (drop_path): DropPath()
        )
      )
      (3): InteractionBlock(
        (injector_rgb): Injector(
          (query_norm): LayerNorm((1024,), eps=1e-06, elementwise_affine=True)
          (feat_norm): LayerNorm((1024,), eps=1e-06, elementwise_affine=True)
          (attn): MSDeformAttn(
            (sampling_offsets): Linear(in_features=1024, out_features=384, bias=True)
            (attention_weights): Linear(in_features=1024, out_features=192, bias=True)
            (value_proj): Linear(in_features=1024, out_features=512, bias=True)
            (output_proj): Linear(in_features=512, out_features=1024, bias=True)
          )
        )
        (injector_d): Injector(
          (query_norm): LayerNorm((1024,), eps=1e-06, elementwise_affine=True)
          (feat_norm): LayerNorm((1024,), eps=1e-06, elementwise_affine=True)
          (attn): MSDeformAttn(
            (sampling_offsets): Linear(in_features=1024, out_features=384, bias=True)
            (attention_weights): Linear(in_features=1024, out_features=192, bias=True)
            (value_proj): Linear(in_features=1024, out_features=512, bias=True)
            (output_proj): Linear(in_features=512, out_features=1024, bias=True)
          )
        )
        (extractor): Extractor(
          (query_norm): LayerNorm((1024,), eps=1e-06, elementwise_affine=True)
          (feat_norm): LayerNorm((1024,), eps=1e-06, elementwise_affine=True)
          (sprase_feat_attn): SpraseFeatAttn(
            (q_proj): Linear(in_features=1024, out_features=1024, bias=True)
            (k_proj): Linear(in_features=1024, out_features=1024, bias=True)
            (v_proj): Linear(in_features=1024, out_features=1024, bias=True)
            (out_proj): Linear(in_features=1024, out_features=1024, bias=True)
            (norm_q): LayerNorm((1024,), eps=1e-06, elementwise_affine=True)
            (norm_kv): LayerNorm((1024,), eps=1e-06, elementwise_affine=True)
            (dropout): Dropout(p=0.0, inplace=False)
            (drop_path): Identity()
          )
          (attn): MSDeformAttn(
            (sampling_offsets): Linear(in_features=1024, out_features=128, bias=True)
            (attention_weights): Linear(in_features=1024, out_features=64, bias=True)
            (value_proj): Linear(in_features=1024, out_features=512, bias=True)
            (output_proj): Linear(in_features=512, out_features=1024, bias=True)
          )
          (plateffn): FFN(
            (layers): ModuleList(
              (0): Linear(in_features=1024, out_features=2048, bias=True)
              (1): Linear(in_features=2048, out_features=1024, bias=True)
            )
            (dropout): Dropout(p=0.0, inplace=False)
            (activation): GELU(approximate='none')
          )
          (plateffn_norm): LayerNorm((1024,), eps=1e-06, elementwise_affine=True)
          (sprase_drop_path): DropPath()
          (cffn): ConvFFN(
            (fc1): Linear(in_features=1024, out_features=256, bias=True)
            (dwconv): DWConv(
              (dwconv): Conv2d(256, 256, kernel_size=(3, 3), stride=(1, 1), padding=(1, 1), groups=256)
            )
            (act): GELU(approximate='none')
            (fc2): Linear(in_features=256, out_features=1024, bias=True)
            (drop): Dropout(p=0.0, inplace=False)
          )
          (cffn_norm): LayerNorm((1024,), eps=1e-06, elementwise_affine=True)
          (drop_path): DropPath()
        )
        (extra_extractors): Sequential(
          (0): Extractor(
            (query_norm): LayerNorm((1024,), eps=1e-06, elementwise_affine=True)
            (feat_norm): LayerNorm((1024,), eps=1e-06, elementwise_affine=True)
            (sprase_feat_attn): SpraseFeatAttn(
              (q_proj): Linear(in_features=1024, out_features=1024, bias=True)
              (k_proj): Linear(in_features=1024, out_features=1024, bias=True)
              (v_proj): Linear(in_features=1024, out_features=1024, bias=True)
              (out_proj): Linear(in_features=1024, out_features=1024, bias=True)
              (norm_q): LayerNorm((1024,), eps=1e-06, elementwise_affine=True)
              (norm_kv): LayerNorm((1024,), eps=1e-06, elementwise_affine=True)
              (dropout): Dropout(p=0.0, inplace=False)
              (drop_path): Identity()
            )
            (attn): MSDeformAttn(
              (sampling_offsets): Linear(in_features=1024, out_features=128, bias=True)
              (attention_weights): Linear(in_features=1024, out_features=64, bias=True)
              (value_proj): Linear(in_features=1024, out_features=512, bias=True)
              (output_proj): Linear(in_features=512, out_features=1024, bias=True)
            )
            (plateffn): FFN(
              (layers): ModuleList(
                (0): Linear(in_features=1024, out_features=2048, bias=True)
                (1): Linear(in_features=2048, out_features=1024, bias=True)
              )
              (dropout): Dropout(p=0.0, inplace=False)
              (activation): GELU(approximate='none')
            )
            (plateffn_norm): LayerNorm((1024,), eps=1e-06, elementwise_affine=True)
            (sprase_drop_path): DropPath()
            (cffn): ConvFFN(
              (fc1): Linear(in_features=1024, out_features=256, bias=True)
              (dwconv): DWConv(
                (dwconv): Conv2d(256, 256, kernel_size=(3, 3), stride=(1, 1), padding=(1, 1), groups=256)
              )
              (act): GELU(approximate='none')
              (fc2): Linear(in_features=256, out_features=1024, bias=True)
              (drop): Dropout(p=0.0, inplace=False)
            )
            (cffn_norm): LayerNorm((1024,), eps=1e-06, elementwise_affine=True)
            (drop_path): DropPath()
          )
          (1): Extractor(
            (query_norm): LayerNorm((1024,), eps=1e-06, elementwise_affine=True)
            (feat_norm): LayerNorm((1024,), eps=1e-06, elementwise_affine=True)
            (sprase_feat_attn): SpraseFeatAttn(
              (q_proj): Linear(in_features=1024, out_features=1024, bias=True)
              (k_proj): Linear(in_features=1024, out_features=1024, bias=True)
              (v_proj): Linear(in_features=1024, out_features=1024, bias=True)
              (out_proj): Linear(in_features=1024, out_features=1024, bias=True)
              (norm_q): LayerNorm((1024,), eps=1e-06, elementwise_affine=True)
              (norm_kv): LayerNorm((1024,), eps=1e-06, elementwise_affine=True)
              (dropout): Dropout(p=0.0, inplace=False)
              (drop_path): Identity()
            )
            (attn): MSDeformAttn(
              (sampling_offsets): Linear(in_features=1024, out_features=128, bias=True)
              (attention_weights): Linear(in_features=1024, out_features=64, bias=True)
              (value_proj): Linear(in_features=1024, out_features=512, bias=True)
              (output_proj): Linear(in_features=512, out_features=1024, bias=True)
            )
            (plateffn): FFN(
              (layers): ModuleList(
                (0): Linear(in_features=1024, out_features=2048, bias=True)
                (1): Linear(in_features=2048, out_features=1024, bias=True)
              )
              (dropout): Dropout(p=0.0, inplace=False)
              (activation): GELU(approximate='none')
            )
            (plateffn_norm): LayerNorm((1024,), eps=1e-06, elementwise_affine=True)
            (sprase_drop_path): DropPath()
            (cffn): ConvFFN(
              (fc1): Linear(in_features=1024, out_features=256, bias=True)
              (dwconv): DWConv(
                (dwconv): Conv2d(256, 256, kernel_size=(3, 3), stride=(1, 1), padding=(1, 1), groups=256)
              )
              (act): GELU(approximate='none')
              (fc2): Linear(in_features=256, out_features=1024, bias=True)
              (drop): Dropout(p=0.0, inplace=False)
            )
            (cffn_norm): LayerNorm((1024,), eps=1e-06, elementwise_affine=True)
            (drop_path): DropPath()
          )
        )
      )
    )
    (up): ConvTranspose2d(1024, 1024, kernel_size=(2, 2), stride=(2, 2))
    (norm1): _BatchNormXd(1024, eps=1e-05, momentum=0.1, affine=True, track_running_stats=True)
    (norm2): _BatchNormXd(1024, eps=1e-05, momentum=0.1, affine=True, track_running_stats=True)
    (norm3): _BatchNormXd(1024, eps=1e-05, momentum=0.1, affine=True, track_running_stats=True)
    (norm4): _BatchNormXd(1024, eps=1e-05, momentum=0.1, affine=True, track_running_stats=True)
  )
  (decode_head): MLPMaskDecoder(
    input_transform=None, ignore_index=255, align_corners=False
    (loss_decode): CrossEntropyLoss(avg_non_ignore=False)
    (conv_seg): Conv2d(1, 1, kernel_size=(1, 1), stride=(1, 1))
    (dropout): Dropout2d(p=0.1, inplace=False)
    (plate_mlp): FFN(
      (layers): ModuleList(
        (0): Linear(in_features=1024, out_features=256, bias=True)
        (1): Linear(in_features=256, out_features=256, bias=True)
        (2): Linear(in_features=256, out_features=256, bias=True)
      )
      (dropout): Dropout(p=0, inplace=False)
      (activation): GELU(approximate='none')
    )
    (feat_mlp): FFN(
      (layers): ModuleList(
        (0): Conv2d(1024, 256, kernel_size=(1, 1), stride=(1, 1))
        (1): Conv2d(256, 256, kernel_size=(1, 1), stride=(1, 1))
        (2): Conv2d(256, 256, kernel_size=(1, 1), stride=(1, 1))
      )
      (dropout): Dropout(p=0, inplace=False)
      (activation): GELU(approximate='none')
    )
    (class_embed): Linear(in_features=256, out_features=2, bias=True)
    (loss_cls): CrossEntropyLoss(avg_non_ignore=False)
    (loss_mask): FocalLoss()
    (loss_dice): DiceLoss()
  )
  init_cfg={'type': 'Normal', 'std': 0.01, 'override': {'name': 'conv_seg'}}
)
INFO:mmseg:EncoderMaskDecoder(
  (backbone): ViTAdapter(
    (patch_embed): PatchEmbed(
      (proj): Conv2d(3, 1024, kernel_size=(16, 16), stride=(16, 16))
      (norm): Identity()
    )
    (pos_drop): Dropout(p=0.0, inplace=False)
    (blocks): Sequential(
      (0): Block(
        (norm1): LayerNorm((1024,), eps=1e-06, elementwise_affine=True)
        (attn): Attention(
          (qkv): Linear(in_features=1024, out_features=3072, bias=True)
          (attn_drop): Dropout(p=0.0, inplace=False)
          (proj): Linear(in_features=1024, out_features=1024, bias=True)
          (proj_drop): Dropout(p=0.0, inplace=False)
        )
        (drop_path): Identity()
        (norm2): LayerNorm((1024,), eps=1e-06, elementwise_affine=True)
        (mlp): Mlp(
          (fc1): Linear(in_features=1024, out_features=4096, bias=True)
          (act): GELU(approximate='none')
          (fc2): Linear(in_features=4096, out_features=1024, bias=True)
          (drop): Dropout(p=0.0, inplace=False)
        )
      )
      (1): Block(
        (norm1): LayerNorm((1024,), eps=1e-06, elementwise_affine=True)
        (attn): Attention(
          (qkv): Linear(in_features=1024, out_features=3072, bias=True)
          (attn_drop): Dropout(p=0.0, inplace=False)
          (proj): Linear(in_features=1024, out_features=1024, bias=True)
          (proj_drop): Dropout(p=0.0, inplace=False)
        )
        (drop_path): DropPath()
        (norm2): LayerNorm((1024,), eps=1e-06, elementwise_affine=True)
        (mlp): Mlp(
          (fc1): Linear(in_features=1024, out_features=4096, bias=True)
          (act): GELU(approximate='none')
          (fc2): Linear(in_features=4096, out_features=1024, bias=True)
          (drop): Dropout(p=0.0, inplace=False)
        )
      )
      (2): Block(
        (norm1): LayerNorm((1024,), eps=1e-06, elementwise_affine=True)
        (attn): Attention(
          (qkv): Linear(in_features=1024, out_features=3072, bias=True)
          (attn_drop): Dropout(p=0.0, inplace=False)
          (proj): Linear(in_features=1024, out_features=1024, bias=True)
          (proj_drop): Dropout(p=0.0, inplace=False)
        )
        (drop_path): DropPath()
        (norm2): LayerNorm((1024,), eps=1e-06, elementwise_affine=True)
        (mlp): Mlp(
          (fc1): Linear(in_features=1024, out_features=4096, bias=True)
          (act): GELU(approximate='none')
          (fc2): Linear(in_features=4096, out_features=1024, bias=True)
          (drop): Dropout(p=0.0, inplace=False)
        )
      )
      (3): Block(
        (norm1): LayerNorm((1024,), eps=1e-06, elementwise_affine=True)
        (attn): Attention(
          (qkv): Linear(in_features=1024, out_features=3072, bias=True)
          (attn_drop): Dropout(p=0.0, inplace=False)
          (proj): Linear(in_features=1024, out_features=1024, bias=True)
          (proj_drop): Dropout(p=0.0, inplace=False)
        )
        (drop_path): DropPath()
        (norm2): LayerNorm((1024,), eps=1e-06, elementwise_affine=True)
        (mlp): Mlp(
          (fc1): Linear(in_features=1024, out_features=4096, bias=True)
          (act): GELU(approximate='none')
          (fc2): Linear(in_features=4096, out_features=1024, bias=True)
          (drop): Dropout(p=0.0, inplace=False)
        )
      )
      (4): Block(
        (norm1): LayerNorm((1024,), eps=1e-06, elementwise_affine=True)
        (attn): Attention(
          (qkv): Linear(in_features=1024, out_features=3072, bias=True)
          (attn_drop): Dropout(p=0.0, inplace=False)
          (proj): Linear(in_features=1024, out_features=1024, bias=True)
          (proj_drop): Dropout(p=0.0, inplace=False)
        )
        (drop_path): DropPath()
        (norm2): LayerNorm((1024,), eps=1e-06, elementwise_affine=True)
        (mlp): Mlp(
          (fc1): Linear(in_features=1024, out_features=4096, bias=True)
          (act): GELU(approximate='none')
          (fc2): Linear(in_features=4096, out_features=1024, bias=True)
          (drop): Dropout(p=0.0, inplace=False)
        )
      )
      (5): Block(
        (norm1): LayerNorm((1024,), eps=1e-06, elementwise_affine=True)
        (attn): Attention(
          (qkv): Linear(in_features=1024, out_features=3072, bias=True)
          (attn_drop): Dropout(p=0.0, inplace=False)
          (proj): Linear(in_features=1024, out_features=1024, bias=True)
          (proj_drop): Dropout(p=0.0, inplace=False)
        )
        (drop_path): DropPath()
        (norm2): LayerNorm((1024,), eps=1e-06, elementwise_affine=True)
        (mlp): Mlp(
          (fc1): Linear(in_features=1024, out_features=4096, bias=True)
          (act): GELU(approximate='none')
          (fc2): Linear(in_features=4096, out_features=1024, bias=True)
          (drop): Dropout(p=0.0, inplace=False)
        )
      )
      (6): Block(
        (norm1): LayerNorm((1024,), eps=1e-06, elementwise_affine=True)
        (attn): Attention(
          (qkv): Linear(in_features=1024, out_features=3072, bias=True)
          (attn_drop): Dropout(p=0.0, inplace=False)
          (proj): Linear(in_features=1024, out_features=1024, bias=True)
          (proj_drop): Dropout(p=0.0, inplace=False)
        )
        (drop_path): DropPath()
        (norm2): LayerNorm((1024,), eps=1e-06, elementwise_affine=True)
        (mlp): Mlp(
          (fc1): Linear(in_features=1024, out_features=4096, bias=True)
          (act): GELU(approximate='none')
          (fc2): Linear(in_features=4096, out_features=1024, bias=True)
          (drop): Dropout(p=0.0, inplace=False)
        )
      )
      (7): Block(
        (norm1): LayerNorm((1024,), eps=1e-06, elementwise_affine=True)
        (attn): Attention(
          (qkv): Linear(in_features=1024, out_features=3072, bias=True)
          (attn_drop): Dropout(p=0.0, inplace=False)
          (proj): Linear(in_features=1024, out_features=1024, bias=True)
          (proj_drop): Dropout(p=0.0, inplace=False)
        )
        (drop_path): DropPath()
        (norm2): LayerNorm((1024,), eps=1e-06, elementwise_affine=True)
        (mlp): Mlp(
          (fc1): Linear(in_features=1024, out_features=4096, bias=True)
          (act): GELU(approximate='none')
          (fc2): Linear(in_features=4096, out_features=1024, bias=True)
          (drop): Dropout(p=0.0, inplace=False)
        )
      )
      (8): Block(
        (norm1): LayerNorm((1024,), eps=1e-06, elementwise_affine=True)
        (attn): Attention(
          (qkv): Linear(in_features=1024, out_features=3072, bias=True)
          (attn_drop): Dropout(p=0.0, inplace=False)
          (proj): Linear(in_features=1024, out_features=1024, bias=True)
          (proj_drop): Dropout(p=0.0, inplace=False)
        )
        (drop_path): DropPath()
        (norm2): LayerNorm((1024,), eps=1e-06, elementwise_affine=True)
        (mlp): Mlp(
          (fc1): Linear(in_features=1024, out_features=4096, bias=True)
          (act): GELU(approximate='none')
          (fc2): Linear(in_features=4096, out_features=1024, bias=True)
          (drop): Dropout(p=0.0, inplace=False)
        )
      )
      (9): Block(
        (norm1): LayerNorm((1024,), eps=1e-06, elementwise_affine=True)
        (attn): Attention(
          (qkv): Linear(in_features=1024, out_features=3072, bias=True)
          (attn_drop): Dropout(p=0.0, inplace=False)
          (proj): Linear(in_features=1024, out_features=1024, bias=True)
          (proj_drop): Dropout(p=0.0, inplace=False)
        )
        (drop_path): DropPath()
        (norm2): LayerNorm((1024,), eps=1e-06, elementwise_affine=True)
        (mlp): Mlp(
          (fc1): Linear(in_features=1024, out_features=4096, bias=True)
          (act): GELU(approximate='none')
          (fc2): Linear(in_features=4096, out_features=1024, bias=True)
          (drop): Dropout(p=0.0, inplace=False)
        )
      )
      (10): Block(
        (norm1): LayerNorm((1024,), eps=1e-06, elementwise_affine=True)
        (attn): Attention(
          (qkv): Linear(in_features=1024, out_features=3072, bias=True)
          (attn_drop): Dropout(p=0.0, inplace=False)
          (proj): Linear(in_features=1024, out_features=1024, bias=True)
          (proj_drop): Dropout(p=0.0, inplace=False)
        )
        (drop_path): DropPath()
        (norm2): LayerNorm((1024,), eps=1e-06, elementwise_affine=True)
        (mlp): Mlp(
          (fc1): Linear(in_features=1024, out_features=4096, bias=True)
          (act): GELU(approximate='none')
          (fc2): Linear(in_features=4096, out_features=1024, bias=True)
          (drop): Dropout(p=0.0, inplace=False)
        )
      )
      (11): Block(
        (norm1): LayerNorm((1024,), eps=1e-06, elementwise_affine=True)
        (attn): Attention(
          (qkv): Linear(in_features=1024, out_features=3072, bias=True)
          (attn_drop): Dropout(p=0.0, inplace=False)
          (proj): Linear(in_features=1024, out_features=1024, bias=True)
          (proj_drop): Dropout(p=0.0, inplace=False)
        )
        (drop_path): DropPath()
        (norm2): LayerNorm((1024,), eps=1e-06, elementwise_affine=True)
        (mlp): Mlp(
          (fc1): Linear(in_features=1024, out_features=4096, bias=True)
          (act): GELU(approximate='none')
          (fc2): Linear(in_features=4096, out_features=1024, bias=True)
          (drop): Dropout(p=0.0, inplace=False)
        )
      )
      (12): Block(
        (norm1): LayerNorm((1024,), eps=1e-06, elementwise_affine=True)
        (attn): Attention(
          (qkv): Linear(in_features=1024, out_features=3072, bias=True)
          (attn_drop): Dropout(p=0.0, inplace=False)
          (proj): Linear(in_features=1024, out_features=1024, bias=True)
          (proj_drop): Dropout(p=0.0, inplace=False)
        )
        (drop_path): DropPath()
        (norm2): LayerNorm((1024,), eps=1e-06, elementwise_affine=True)
        (mlp): Mlp(
          (fc1): Linear(in_features=1024, out_features=4096, bias=True)
          (act): GELU(approximate='none')
          (fc2): Linear(in_features=4096, out_features=1024, bias=True)
          (drop): Dropout(p=0.0, inplace=False)
        )
      )
      (13): Block(
        (norm1): LayerNorm((1024,), eps=1e-06, elementwise_affine=True)
        (attn): Attention(
          (qkv): Linear(in_features=1024, out_features=3072, bias=True)
          (attn_drop): Dropout(p=0.0, inplace=False)
          (proj): Linear(in_features=1024, out_features=1024, bias=True)
          (proj_drop): Dropout(p=0.0, inplace=False)
        )
        (drop_path): DropPath()
        (norm2): LayerNorm((1024,), eps=1e-06, elementwise_affine=True)
        (mlp): Mlp(
          (fc1): Linear(in_features=1024, out_features=4096, bias=True)
          (act): GELU(approximate='none')
          (fc2): Linear(in_features=4096, out_features=1024, bias=True)
          (drop): Dropout(p=0.0, inplace=False)
        )
      )
      (14): Block(
        (norm1): LayerNorm((1024,), eps=1e-06, elementwise_affine=True)
        (attn): Attention(
          (qkv): Linear(in_features=1024, out_features=3072, bias=True)
          (attn_drop): Dropout(p=0.0, inplace=False)
          (proj): Linear(in_features=1024, out_features=1024, bias=True)
          (proj_drop): Dropout(p=0.0, inplace=False)
        )
        (drop_path): DropPath()
        (norm2): LayerNorm((1024,), eps=1e-06, elementwise_affine=True)
        (mlp): Mlp(
          (fc1): Linear(in_features=1024, out_features=4096, bias=True)
          (act): GELU(approximate='none')
          (fc2): Linear(in_features=4096, out_features=1024, bias=True)
          (drop): Dropout(p=0.0, inplace=False)
        )
      )
      (15): Block(
        (norm1): LayerNorm((1024,), eps=1e-06, elementwise_affine=True)
        (attn): Attention(
          (qkv): Linear(in_features=1024, out_features=3072, bias=True)
          (attn_drop): Dropout(p=0.0, inplace=False)
          (proj): Linear(in_features=1024, out_features=1024, bias=True)
          (proj_drop): Dropout(p=0.0, inplace=False)
        )
        (drop_path): DropPath()
        (norm2): LayerNorm((1024,), eps=1e-06, elementwise_affine=True)
        (mlp): Mlp(
          (fc1): Linear(in_features=1024, out_features=4096, bias=True)
          (act): GELU(approximate='none')
          (fc2): Linear(in_features=4096, out_features=1024, bias=True)
          (drop): Dropout(p=0.0, inplace=False)
        )
      )
      (16): Block(
        (norm1): LayerNorm((1024,), eps=1e-06, elementwise_affine=True)
        (attn): Attention(
          (qkv): Linear(in_features=1024, out_features=3072, bias=True)
          (attn_drop): Dropout(p=0.0, inplace=False)
          (proj): Linear(in_features=1024, out_features=1024, bias=True)
          (proj_drop): Dropout(p=0.0, inplace=False)
        )
        (drop_path): DropPath()
        (norm2): LayerNorm((1024,), eps=1e-06, elementwise_affine=True)
        (mlp): Mlp(
          (fc1): Linear(in_features=1024, out_features=4096, bias=True)
          (act): GELU(approximate='none')
          (fc2): Linear(in_features=4096, out_features=1024, bias=True)
          (drop): Dropout(p=0.0, inplace=False)
        )
      )
      (17): Block(
        (norm1): LayerNorm((1024,), eps=1e-06, elementwise_affine=True)
        (attn): Attention(
          (qkv): Linear(in_features=1024, out_features=3072, bias=True)
          (attn_drop): Dropout(p=0.0, inplace=False)
          (proj): Linear(in_features=1024, out_features=1024, bias=True)
          (proj_drop): Dropout(p=0.0, inplace=False)
        )
        (drop_path): DropPath()
        (norm2): LayerNorm((1024,), eps=1e-06, elementwise_affine=True)
        (mlp): Mlp(
          (fc1): Linear(in_features=1024, out_features=4096, bias=True)
          (act): GELU(approximate='none')
          (fc2): Linear(in_features=4096, out_features=1024, bias=True)
          (drop): Dropout(p=0.0, inplace=False)
        )
      )
      (18): Block(
        (norm1): LayerNorm((1024,), eps=1e-06, elementwise_affine=True)
        (attn): Attention(
          (qkv): Linear(in_features=1024, out_features=3072, bias=True)
          (attn_drop): Dropout(p=0.0, inplace=False)
          (proj): Linear(in_features=1024, out_features=1024, bias=True)
          (proj_drop): Dropout(p=0.0, inplace=False)
        )
        (drop_path): DropPath()
        (norm2): LayerNorm((1024,), eps=1e-06, elementwise_affine=True)
        (mlp): Mlp(
          (fc1): Linear(in_features=1024, out_features=4096, bias=True)
          (act): GELU(approximate='none')
          (fc2): Linear(in_features=4096, out_features=1024, bias=True)
          (drop): Dropout(p=0.0, inplace=False)
        )
      )
      (19): Block(
        (norm1): LayerNorm((1024,), eps=1e-06, elementwise_affine=True)
        (attn): Attention(
          (qkv): Linear(in_features=1024, out_features=3072, bias=True)
          (attn_drop): Dropout(p=0.0, inplace=False)
          (proj): Linear(in_features=1024, out_features=1024, bias=True)
          (proj_drop): Dropout(p=0.0, inplace=False)
        )
        (drop_path): DropPath()
        (norm2): LayerNorm((1024,), eps=1e-06, elementwise_affine=True)
        (mlp): Mlp(
          (fc1): Linear(in_features=1024, out_features=4096, bias=True)
          (act): GELU(approximate='none')
          (fc2): Linear(in_features=4096, out_features=1024, bias=True)
          (drop): Dropout(p=0.0, inplace=False)
        )
      )
      (20): Block(
        (norm1): LayerNorm((1024,), eps=1e-06, elementwise_affine=True)
        (attn): Attention(
          (qkv): Linear(in_features=1024, out_features=3072, bias=True)
          (attn_drop): Dropout(p=0.0, inplace=False)
          (proj): Linear(in_features=1024, out_features=1024, bias=True)
          (proj_drop): Dropout(p=0.0, inplace=False)
        )
        (drop_path): DropPath()
        (norm2): LayerNorm((1024,), eps=1e-06, elementwise_affine=True)
        (mlp): Mlp(
          (fc1): Linear(in_features=1024, out_features=4096, bias=True)
          (act): GELU(approximate='none')
          (fc2): Linear(in_features=4096, out_features=1024, bias=True)
          (drop): Dropout(p=0.0, inplace=False)
        )
      )
      (21): Block(
        (norm1): LayerNorm((1024,), eps=1e-06, elementwise_affine=True)
        (attn): Attention(
          (qkv): Linear(in_features=1024, out_features=3072, bias=True)
          (attn_drop): Dropout(p=0.0, inplace=False)
          (proj): Linear(in_features=1024, out_features=1024, bias=True)
          (proj_drop): Dropout(p=0.0, inplace=False)
        )
        (drop_path): DropPath()
        (norm2): LayerNorm((1024,), eps=1e-06, elementwise_affine=True)
        (mlp): Mlp(
          (fc1): Linear(in_features=1024, out_features=4096, bias=True)
          (act): GELU(approximate='none')
          (fc2): Linear(in_features=4096, out_features=1024, bias=True)
          (drop): Dropout(p=0.0, inplace=False)
        )
      )
      (22): Block(
        (norm1): LayerNorm((1024,), eps=1e-06, elementwise_affine=True)
        (attn): Attention(
          (qkv): Linear(in_features=1024, out_features=3072, bias=True)
          (attn_drop): Dropout(p=0.0, inplace=False)
          (proj): Linear(in_features=1024, out_features=1024, bias=True)
          (proj_drop): Dropout(p=0.0, inplace=False)
        )
        (drop_path): DropPath()
        (norm2): LayerNorm((1024,), eps=1e-06, elementwise_affine=True)
        (mlp): Mlp(
          (fc1): Linear(in_features=1024, out_features=4096, bias=True)
          (act): GELU(approximate='none')
          (fc2): Linear(in_features=4096, out_features=1024, bias=True)
          (drop): Dropout(p=0.0, inplace=False)
        )
      )
      (23): Block(
        (norm1): LayerNorm((1024,), eps=1e-06, elementwise_affine=True)
        (attn): Attention(
          (qkv): Linear(in_features=1024, out_features=3072, bias=True)
          (attn_drop): Dropout(p=0.0, inplace=False)
          (proj): Linear(in_features=1024, out_features=1024, bias=True)
          (proj_drop): Dropout(p=0.0, inplace=False)
        )
        (drop_path): DropPath()
        (norm2): LayerNorm((1024,), eps=1e-06, elementwise_affine=True)
        (mlp): Mlp(
          (fc1): Linear(in_features=1024, out_features=4096, bias=True)
          (act): GELU(approximate='none')
          (fc2): Linear(in_features=4096, out_features=1024, bias=True)
          (drop): Dropout(p=0.0, inplace=False)
        )
      )
    )
    (spm_rgb): SpatialPriorModule(
      (stem): Sequential(
        (0): Conv2d(3, 64, kernel_size=(3, 3), stride=(2, 2), padding=(1, 1), bias=False)
        (1): _BatchNormXd(64, eps=1e-05, momentum=0.1, affine=True, track_running_stats=True)
        (2): ReLU(inplace=True)
        (3): Conv2d(64, 64, kernel_size=(3, 3), stride=(1, 1), padding=(1, 1), bias=False)
        (4): _BatchNormXd(64, eps=1e-05, momentum=0.1, affine=True, track_running_stats=True)
        (5): ReLU(inplace=True)
        (6): Conv2d(64, 64, kernel_size=(3, 3), stride=(1, 1), padding=(1, 1), bias=False)
        (7): _BatchNormXd(64, eps=1e-05, momentum=0.1, affine=True, track_running_stats=True)
        (8): ReLU(inplace=True)
        (9): MaxPool2d(kernel_size=3, stride=2, padding=1, dilation=1, ceil_mode=False)
      )
      (conv2): Sequential(
        (0): Conv2d(64, 128, kernel_size=(3, 3), stride=(2, 2), padding=(1, 1), bias=False)
        (1): _BatchNormXd(128, eps=1e-05, momentum=0.1, affine=True, track_running_stats=True)
        (2): ReLU(inplace=True)
      )
      (conv3): Sequential(
        (0): Conv2d(128, 256, kernel_size=(3, 3), stride=(2, 2), padding=(1, 1), bias=False)
        (1): _BatchNormXd(256, eps=1e-05, momentum=0.1, affine=True, track_running_stats=True)
        (2): ReLU(inplace=True)
      )
      (conv4): Sequential(
        (0): Conv2d(256, 256, kernel_size=(3, 3), stride=(2, 2), padding=(1, 1), bias=False)
        (1): _BatchNormXd(256, eps=1e-05, momentum=0.1, affine=True, track_running_stats=True)
        (2): ReLU(inplace=True)
      )
      (fc1): Conv2d(64, 1024, kernel_size=(1, 1), stride=(1, 1))
      (fc2): Conv2d(128, 1024, kernel_size=(1, 1), stride=(1, 1))
      (fc3): Conv2d(256, 1024, kernel_size=(1, 1), stride=(1, 1))
      (fc4): Conv2d(256, 1024, kernel_size=(1, 1), stride=(1, 1))
    )
    (spm_depth): SpatialPriorModule(
      (stem): Sequential(
        (0): Conv2d(1, 64, kernel_size=(5, 5), stride=(2, 2), padding=(2, 2), bias=False)
        (1): _BatchNormXd(64, eps=1e-05, momentum=0.1, affine=True, track_running_stats=True)
        (2): ReLU(inplace=True)
        (3): Conv2d(64, 64, kernel_size=(3, 3), stride=(1, 1), padding=(1, 1), bias=False)
        (4): _BatchNormXd(64, eps=1e-05, momentum=0.1, affine=True, track_running_stats=True)
        (5): ReLU(inplace=True)
        (6): Conv2d(64, 64, kernel_size=(3, 3), stride=(1, 1), padding=(1, 1), bias=False)
        (7): _BatchNormXd(64, eps=1e-05, momentum=0.1, affine=True, track_running_stats=True)
        (8): ReLU(inplace=True)
        (9): MaxPool2d(kernel_size=3, stride=2, padding=1, dilation=1, ceil_mode=False)
      )
      (conv2): Sequential(
        (0): Conv2d(64, 128, kernel_size=(3, 3), stride=(2, 2), padding=(1, 1), bias=False)
        (1): _BatchNormXd(128, eps=1e-05, momentum=0.1, affine=True, track_running_stats=True)
        (2): ReLU(inplace=True)
      )
      (conv3): Sequential(
        (0): Conv2d(128, 256, kernel_size=(3, 3), stride=(2, 2), padding=(1, 1), bias=False)
        (1): _BatchNormXd(256, eps=1e-05, momentum=0.1, affine=True, track_running_stats=True)
        (2): ReLU(inplace=True)
      )
      (conv4): Sequential(
        (0): Conv2d(256, 256, kernel_size=(3, 3), stride=(2, 2), padding=(1, 1), bias=False)
        (1): _BatchNormXd(256, eps=1e-05, momentum=0.1, affine=True, track_running_stats=True)
        (2): ReLU(inplace=True)
      )
      (fc1): Conv2d(64, 1024, kernel_size=(1, 1), stride=(1, 1))
      (fc2): Conv2d(128, 1024, kernel_size=(1, 1), stride=(1, 1))
      (fc3): Conv2d(256, 1024, kernel_size=(1, 1), stride=(1, 1))
      (fc4): Conv2d(256, 1024, kernel_size=(1, 1), stride=(1, 1))
    )
    (interactions): Sequential(
      (0): InteractionBlock(
        (injector_rgb): Injector(
          (query_norm): LayerNorm((1024,), eps=1e-06, elementwise_affine=True)
          (feat_norm): LayerNorm((1024,), eps=1e-06, elementwise_affine=True)
          (attn): MSDeformAttn(
            (sampling_offsets): Linear(in_features=1024, out_features=384, bias=True)
            (attention_weights): Linear(in_features=1024, out_features=192, bias=True)
            (value_proj): Linear(in_features=1024, out_features=512, bias=True)
            (output_proj): Linear(in_features=512, out_features=1024, bias=True)
          )
        )
        (extractor): Extractor(
          (query_norm): LayerNorm((1024,), eps=1e-06, elementwise_affine=True)
          (feat_norm): LayerNorm((1024,), eps=1e-06, elementwise_affine=True)
          (sprase_feat_attn): SpraseFeatAttn(
            (q_proj): Linear(in_features=1024, out_features=1024, bias=True)
            (k_proj): Linear(in_features=1024, out_features=1024, bias=True)
            (v_proj): Linear(in_features=1024, out_features=1024, bias=True)
            (out_proj): Linear(in_features=1024, out_features=1024, bias=True)
            (norm_q): LayerNorm((1024,), eps=1e-06, elementwise_affine=True)
            (norm_kv): LayerNorm((1024,), eps=1e-06, elementwise_affine=True)
            (dropout): Dropout(p=0.0, inplace=False)
            (drop_path): Identity()
          )
          (attn): MSDeformAttn(
            (sampling_offsets): Linear(in_features=1024, out_features=128, bias=True)
            (attention_weights): Linear(in_features=1024, out_features=64, bias=True)
            (value_proj): Linear(in_features=1024, out_features=512, bias=True)
            (output_proj): Linear(in_features=512, out_features=1024, bias=True)
          )
          (plateffn): FFN(
            (layers): ModuleList(
              (0): Linear(in_features=1024, out_features=2048, bias=True)
              (1): Linear(in_features=2048, out_features=1024, bias=True)
            )
            (dropout): Dropout(p=0.0, inplace=False)
            (activation): GELU(approximate='none')
          )
          (plateffn_norm): LayerNorm((1024,), eps=1e-06, elementwise_affine=True)
          (sprase_drop_path): DropPath()
          (cffn): ConvFFN(
            (fc1): Linear(in_features=1024, out_features=256, bias=True)
            (dwconv): DWConv(
              (dwconv): Conv2d(256, 256, kernel_size=(3, 3), stride=(1, 1), padding=(1, 1), groups=256)
            )
            (act): GELU(approximate='none')
            (fc2): Linear(in_features=256, out_features=1024, bias=True)
            (drop): Dropout(p=0.0, inplace=False)
          )
          (cffn_norm): LayerNorm((1024,), eps=1e-06, elementwise_affine=True)
          (drop_path): DropPath()
        )
      )
      (1): InteractionBlock(
        (injector_rgb): Injector(
          (query_norm): LayerNorm((1024,), eps=1e-06, elementwise_affine=True)
          (feat_norm): LayerNorm((1024,), eps=1e-06, elementwise_affine=True)
          (attn): MSDeformAttn(
            (sampling_offsets): Linear(in_features=1024, out_features=384, bias=True)
            (attention_weights): Linear(in_features=1024, out_features=192, bias=True)
            (value_proj): Linear(in_features=1024, out_features=512, bias=True)
            (output_proj): Linear(in_features=512, out_features=1024, bias=True)
          )
        )
        (extractor): Extractor(
          (query_norm): LayerNorm((1024,), eps=1e-06, elementwise_affine=True)
          (feat_norm): LayerNorm((1024,), eps=1e-06, elementwise_affine=True)
          (sprase_feat_attn): SpraseFeatAttn(
            (q_proj): Linear(in_features=1024, out_features=1024, bias=True)
            (k_proj): Linear(in_features=1024, out_features=1024, bias=True)
            (v_proj): Linear(in_features=1024, out_features=1024, bias=True)
            (out_proj): Linear(in_features=1024, out_features=1024, bias=True)
            (norm_q): LayerNorm((1024,), eps=1e-06, elementwise_affine=True)
            (norm_kv): LayerNorm((1024,), eps=1e-06, elementwise_affine=True)
            (dropout): Dropout(p=0.0, inplace=False)
            (drop_path): Identity()
          )
          (attn): MSDeformAttn(
            (sampling_offsets): Linear(in_features=1024, out_features=128, bias=True)
            (attention_weights): Linear(in_features=1024, out_features=64, bias=True)
            (value_proj): Linear(in_features=1024, out_features=512, bias=True)
            (output_proj): Linear(in_features=512, out_features=1024, bias=True)
          )
          (plateffn): FFN(
            (layers): ModuleList(
              (0): Linear(in_features=1024, out_features=2048, bias=True)
              (1): Linear(in_features=2048, out_features=1024, bias=True)
            )
            (dropout): Dropout(p=0.0, inplace=False)
            (activation): GELU(approximate='none')
          )
          (plateffn_norm): LayerNorm((1024,), eps=1e-06, elementwise_affine=True)
          (sprase_drop_path): DropPath()
          (cffn): ConvFFN(
            (fc1): Linear(in_features=1024, out_features=256, bias=True)
            (dwconv): DWConv(
              (dwconv): Conv2d(256, 256, kernel_size=(3, 3), stride=(1, 1), padding=(1, 1), groups=256)
            )
            (act): GELU(approximate='none')
            (fc2): Linear(in_features=256, out_features=1024, bias=True)
            (drop): Dropout(p=0.0, inplace=False)
          )
          (cffn_norm): LayerNorm((1024,), eps=1e-06, elementwise_affine=True)
          (drop_path): DropPath()
        )
      )
      (2): InteractionBlock(
        (injector_rgb): Injector(
          (query_norm): LayerNorm((1024,), eps=1e-06, elementwise_affine=True)
          (feat_norm): LayerNorm((1024,), eps=1e-06, elementwise_affine=True)
          (attn): MSDeformAttn(
            (sampling_offsets): Linear(in_features=1024, out_features=384, bias=True)
            (attention_weights): Linear(in_features=1024, out_features=192, bias=True)
            (value_proj): Linear(in_features=1024, out_features=512, bias=True)
            (output_proj): Linear(in_features=512, out_features=1024, bias=True)
          )
        )
        (injector_d): Injector(
          (query_norm): LayerNorm((1024,), eps=1e-06, elementwise_affine=True)
          (feat_norm): LayerNorm((1024,), eps=1e-06, elementwise_affine=True)
          (attn): MSDeformAttn(
            (sampling_offsets): Linear(in_features=1024, out_features=384, bias=True)
            (attention_weights): Linear(in_features=1024, out_features=192, bias=True)
            (value_proj): Linear(in_features=1024, out_features=512, bias=True)
            (output_proj): Linear(in_features=512, out_features=1024, bias=True)
          )
        )
        (extractor): Extractor(
          (query_norm): LayerNorm((1024,), eps=1e-06, elementwise_affine=True)
          (feat_norm): LayerNorm((1024,), eps=1e-06, elementwise_affine=True)
          (sprase_feat_attn): SpraseFeatAttn(
            (q_proj): Linear(in_features=1024, out_features=1024, bias=True)
            (k_proj): Linear(in_features=1024, out_features=1024, bias=True)
            (v_proj): Linear(in_features=1024, out_features=1024, bias=True)
            (out_proj): Linear(in_features=1024, out_features=1024, bias=True)
            (norm_q): LayerNorm((1024,), eps=1e-06, elementwise_affine=True)
            (norm_kv): LayerNorm((1024,), eps=1e-06, elementwise_affine=True)
            (dropout): Dropout(p=0.0, inplace=False)
            (drop_path): Identity()
          )
          (attn): MSDeformAttn(
            (sampling_offsets): Linear(in_features=1024, out_features=128, bias=True)
            (attention_weights): Linear(in_features=1024, out_features=64, bias=True)
            (value_proj): Linear(in_features=1024, out_features=512, bias=True)
            (output_proj): Linear(in_features=512, out_features=1024, bias=True)
          )
          (plateffn): FFN(
            (layers): ModuleList(
              (0): Linear(in_features=1024, out_features=2048, bias=True)
              (1): Linear(in_features=2048, out_features=1024, bias=True)
            )
            (dropout): Dropout(p=0.0, inplace=False)
            (activation): GELU(approximate='none')
          )
          (plateffn_norm): LayerNorm((1024,), eps=1e-06, elementwise_affine=True)
          (sprase_drop_path): DropPath()
          (cffn): ConvFFN(
            (fc1): Linear(in_features=1024, out_features=256, bias=True)
            (dwconv): DWConv(
              (dwconv): Conv2d(256, 256, kernel_size=(3, 3), stride=(1, 1), padding=(1, 1), groups=256)
            )
            (act): GELU(approximate='none')
            (fc2): Linear(in_features=256, out_features=1024, bias=True)
            (drop): Dropout(p=0.0, inplace=False)
          )
          (cffn_norm): LayerNorm((1024,), eps=1e-06, elementwise_affine=True)
          (drop_path): DropPath()
        )
      )
      (3): InteractionBlock(
        (injector_rgb): Injector(
          (query_norm): LayerNorm((1024,), eps=1e-06, elementwise_affine=True)
          (feat_norm): LayerNorm((1024,), eps=1e-06, elementwise_affine=True)
          (attn): MSDeformAttn(
            (sampling_offsets): Linear(in_features=1024, out_features=384, bias=True)
            (attention_weights): Linear(in_features=1024, out_features=192, bias=True)
            (value_proj): Linear(in_features=1024, out_features=512, bias=True)
            (output_proj): Linear(in_features=512, out_features=1024, bias=True)
          )
        )
        (injector_d): Injector(
          (query_norm): LayerNorm((1024,), eps=1e-06, elementwise_affine=True)
          (feat_norm): LayerNorm((1024,), eps=1e-06, elementwise_affine=True)
          (attn): MSDeformAttn(
            (sampling_offsets): Linear(in_features=1024, out_features=384, bias=True)
            (attention_weights): Linear(in_features=1024, out_features=192, bias=True)
            (value_proj): Linear(in_features=1024, out_features=512, bias=True)
            (output_proj): Linear(in_features=512, out_features=1024, bias=True)
          )
        )
        (extractor): Extractor(
          (query_norm): LayerNorm((1024,), eps=1e-06, elementwise_affine=True)
          (feat_norm): LayerNorm((1024,), eps=1e-06, elementwise_affine=True)
          (sprase_feat_attn): SpraseFeatAttn(
            (q_proj): Linear(in_features=1024, out_features=1024, bias=True)
            (k_proj): Linear(in_features=1024, out_features=1024, bias=True)
            (v_proj): Linear(in_features=1024, out_features=1024, bias=True)
            (out_proj): Linear(in_features=1024, out_features=1024, bias=True)
            (norm_q): LayerNorm((1024,), eps=1e-06, elementwise_affine=True)
            (norm_kv): LayerNorm((1024,), eps=1e-06, elementwise_affine=True)
            (dropout): Dropout(p=0.0, inplace=False)
            (drop_path): Identity()
          )
          (attn): MSDeformAttn(
            (sampling_offsets): Linear(in_features=1024, out_features=128, bias=True)
            (attention_weights): Linear(in_features=1024, out_features=64, bias=True)
            (value_proj): Linear(in_features=1024, out_features=512, bias=True)
            (output_proj): Linear(in_features=512, out_features=1024, bias=True)
          )
          (plateffn): FFN(
            (layers): ModuleList(
              (0): Linear(in_features=1024, out_features=2048, bias=True)
              (1): Linear(in_features=2048, out_features=1024, bias=True)
            )
            (dropout): Dropout(p=0.0, inplace=False)
            (activation): GELU(approximate='none')
          )
          (plateffn_norm): LayerNorm((1024,), eps=1e-06, elementwise_affine=True)
          (sprase_drop_path): DropPath()
          (cffn): ConvFFN(
            (fc1): Linear(in_features=1024, out_features=256, bias=True)
            (dwconv): DWConv(
              (dwconv): Conv2d(256, 256, kernel_size=(3, 3), stride=(1, 1), padding=(1, 1), groups=256)
            )
            (act): GELU(approximate='none')
            (fc2): Linear(in_features=256, out_features=1024, bias=True)
            (drop): Dropout(p=0.0, inplace=False)
          )
          (cffn_norm): LayerNorm((1024,), eps=1e-06, elementwise_affine=True)
          (drop_path): DropPath()
        )
        (extra_extractors): Sequential(
          (0): Extractor(
            (query_norm): LayerNorm((1024,), eps=1e-06, elementwise_affine=True)
            (feat_norm): LayerNorm((1024,), eps=1e-06, elementwise_affine=True)
            (sprase_feat_attn): SpraseFeatAttn(
              (q_proj): Linear(in_features=1024, out_features=1024, bias=True)
              (k_proj): Linear(in_features=1024, out_features=1024, bias=True)
              (v_proj): Linear(in_features=1024, out_features=1024, bias=True)
              (out_proj): Linear(in_features=1024, out_features=1024, bias=True)
              (norm_q): LayerNorm((1024,), eps=1e-06, elementwise_affine=True)
              (norm_kv): LayerNorm((1024,), eps=1e-06, elementwise_affine=True)
              (dropout): Dropout(p=0.0, inplace=False)
              (drop_path): Identity()
            )
            (attn): MSDeformAttn(
              (sampling_offsets): Linear(in_features=1024, out_features=128, bias=True)
              (attention_weights): Linear(in_features=1024, out_features=64, bias=True)
              (value_proj): Linear(in_features=1024, out_features=512, bias=True)
              (output_proj): Linear(in_features=512, out_features=1024, bias=True)
            )
            (plateffn): FFN(
              (layers): ModuleList(
                (0): Linear(in_features=1024, out_features=2048, bias=True)
                (1): Linear(in_features=2048, out_features=1024, bias=True)
              )
              (dropout): Dropout(p=0.0, inplace=False)
              (activation): GELU(approximate='none')
            )
            (plateffn_norm): LayerNorm((1024,), eps=1e-06, elementwise_affine=True)
            (sprase_drop_path): DropPath()
            (cffn): ConvFFN(
              (fc1): Linear(in_features=1024, out_features=256, bias=True)
              (dwconv): DWConv(
                (dwconv): Conv2d(256, 256, kernel_size=(3, 3), stride=(1, 1), padding=(1, 1), groups=256)
              )
              (act): GELU(approximate='none')
              (fc2): Linear(in_features=256, out_features=1024, bias=True)
              (drop): Dropout(p=0.0, inplace=False)
            )
            (cffn_norm): LayerNorm((1024,), eps=1e-06, elementwise_affine=True)
            (drop_path): DropPath()
          )
          (1): Extractor(
            (query_norm): LayerNorm((1024,), eps=1e-06, elementwise_affine=True)
            (feat_norm): LayerNorm((1024,), eps=1e-06, elementwise_affine=True)
            (sprase_feat_attn): SpraseFeatAttn(
              (q_proj): Linear(in_features=1024, out_features=1024, bias=True)
              (k_proj): Linear(in_features=1024, out_features=1024, bias=True)
              (v_proj): Linear(in_features=1024, out_features=1024, bias=True)
              (out_proj): Linear(in_features=1024, out_features=1024, bias=True)
              (norm_q): LayerNorm((1024,), eps=1e-06, elementwise_affine=True)
              (norm_kv): LayerNorm((1024,), eps=1e-06, elementwise_affine=True)
              (dropout): Dropout(p=0.0, inplace=False)
              (drop_path): Identity()
            )
            (attn): MSDeformAttn(
              (sampling_offsets): Linear(in_features=1024, out_features=128, bias=True)
              (attention_weights): Linear(in_features=1024, out_features=64, bias=True)
              (value_proj): Linear(in_features=1024, out_features=512, bias=True)
              (output_proj): Linear(in_features=512, out_features=1024, bias=True)
            )
            (plateffn): FFN(
              (layers): ModuleList(
                (0): Linear(in_features=1024, out_features=2048, bias=True)
                (1): Linear(in_features=2048, out_features=1024, bias=True)
              )
              (dropout): Dropout(p=0.0, inplace=False)
              (activation): GELU(approximate='none')
            )
            (plateffn_norm): LayerNorm((1024,), eps=1e-06, elementwise_affine=True)
            (sprase_drop_path): DropPath()
            (cffn): ConvFFN(
              (fc1): Linear(in_features=1024, out_features=256, bias=True)
              (dwconv): DWConv(
                (dwconv): Conv2d(256, 256, kernel_size=(3, 3), stride=(1, 1), padding=(1, 1), groups=256)
              )
              (act): GELU(approximate='none')
              (fc2): Linear(in_features=256, out_features=1024, bias=True)
              (drop): Dropout(p=0.0, inplace=False)
            )
            (cffn_norm): LayerNorm((1024,), eps=1e-06, elementwise_affine=True)
            (drop_path): DropPath()
          )
        )
      )
    )
    (up): ConvTranspose2d(1024, 1024, kernel_size=(2, 2), stride=(2, 2))
    (norm1): _BatchNormXd(1024, eps=1e-05, momentum=0.1, affine=True, track_running_stats=True)
    (norm2): _BatchNormXd(1024, eps=1e-05, momentum=0.1, affine=True, track_running_stats=True)
    (norm3): _BatchNormXd(1024, eps=1e-05, momentum=0.1, affine=True, track_running_stats=True)
    (norm4): _BatchNormXd(1024, eps=1e-05, momentum=0.1, affine=True, track_running_stats=True)
  )
  (decode_head): MLPMaskDecoder(
    input_transform=None, ignore_index=255, align_corners=False
    (loss_decode): CrossEntropyLoss(avg_non_ignore=False)
    (conv_seg): Conv2d(1, 1, kernel_size=(1, 1), stride=(1, 1))
    (dropout): Dropout2d(p=0.1, inplace=False)
    (plate_mlp): FFN(
      (layers): ModuleList(
        (0): Linear(in_features=1024, out_features=256, bias=True)
        (1): Linear(in_features=256, out_features=256, bias=True)
        (2): Linear(in_features=256, out_features=256, bias=True)
      )
      (dropout): Dropout(p=0, inplace=False)
      (activation): GELU(approximate='none')
    )
    (feat_mlp): FFN(
      (layers): ModuleList(
        (0): Conv2d(1024, 256, kernel_size=(1, 1), stride=(1, 1))
        (1): Conv2d(256, 256, kernel_size=(1, 1), stride=(1, 1))
        (2): Conv2d(256, 256, kernel_size=(1, 1), stride=(1, 1))
      )
      (dropout): Dropout(p=0, inplace=False)
      (activation): GELU(approximate='none')
    )
    (class_embed): Linear(in_features=256, out_features=2, bias=True)
    (loss_cls): CrossEntropyLoss(avg_non_ignore=False)
    (loss_mask): FocalLoss()
    (loss_dice): DiceLoss()
  )
  init_cfg={'type': 'Normal', 'std': 0.01, 'override': {'name': 'conv_seg'}}
)
2026-04-17 02:40:10,565 - mmseg - INFO - Loaded 2578 images
INFO:mmseg:Loaded 2578 images
2026-04-17 02:40:12,790 - mmseg - INFO - Start running, host: zengyuzhi@gpu3, work_dir: /data/zengyuzhi/project/nutrition/work_dirs/nutrition_seg
…
